cairo_lstm_torch.pt (torch, 206165 bytes, 9 tensors)

lstm.weight_ih_l0 f4 [256, 1]
00000000: 9d0e db3d f870 0fbe e550 8bbd c0f9 f0bd
00000010: 4b98 a1bc da75 9d3c 9dc2 debd 383a 273d
00000020: e78e 71bc ece7 2cbe bb0f 703e 1410 cb3e
00000030: b1db 433e a6fd f93e ba0a 303e 8866 0ebe
00000040: ea1f 2abd ac23 913e 8efd fdbd bcaa 8c3e
00000050: dcee a13e 4d45 16bb 4feb 383e 70ea cebc
00000060: a449 01be 7507 493f f06e 1c3e 6ccc 2ebe
00000070: 0398 5e3e 7800 3e3e 8436 1b3d ea55 be3c
00000080: 3512 f0bd 9f8f 79bd 8aa8 babd a2ef ffbc
00000090: 8f4e e9bc 37b6 d83e bcbd c23e ae30 bf3d
000000a0: 5c99 2ebd e62c 943e 3251 3abc 30fa eebd
000000b0: 0d36 be3d 2343 113e a2d3 563d 3dff 933c
000000c0: 7433 b83d 5387 37bd 2fd1 0abc d57f 593d
000000d0: 35aa a3bd 0adc ea3d ba39 c63d 0788 15be
000000e0: c862 693e 487e f0bc faa4 7a3e 7126 253d
000000f0: 554b 683d ead7 173e 56c1 563d 3db9 8e3e
00000100: 4c19 a7bd 1854 23be a7d8 9cbd 1080 2d3d
00000110: f50c a9bc 5e04 9cbc d32b 27bd 26ed 39bd
00000120: e599 783d 0374 ecbd 6a56 61be fa19 52be
00000130: cfab 263d 37c6 3abe 1201 f9bd 581b a0bd
00000140: 8696 74be 2524 51be 72d7 38be 8cc6 4cbe
00000150: 1dcc 28be ce19 0bbd 414d 0bbe e098 e9bc
00000160: 7ed0 22be b70b 8dbe b746 2a3c b168 0f3d
00000170: e4cd 97be 3276 36be b6dd 3f3d af09 13bd
00000180: 7566 863d fe7a 6dbd 319a 28be 3b63 bbbd
00000190: 08e8 c9bd 825e 7abe a0c3 d4bc a6ee b3be
000001a0: 82ed ad3a 9ada 98be 195d c9bb 5aff b4bb
000001b0: 690b 13be df87 e2bc e466 ffbd e3b4 fcbd
000001c0: c2e2 a7be ddce 183c a6a4 88bc e785 f9bd
000001d0: dd72 e03d 4547 60be 81bc 47bd 2264 37be
000001e0: 8054 013e 7e01 9fbd 40e0 81be c296 10be
000001f0: 307e 91bd a3de ddbc c6e8 083d 55ca c2be
00000200: 649b 7a3e 674c 0cbe b830 393e 4ddf b2bd
00000210: a05a 5fbe 5b13 62be 7a99 15bd 7a08 37be
00000220: 7824 533e 572e df3d 05ec aabe fa05 a33e
00000230: dc78 70be bec0 da3e 4575 5e3e 67d9 c93d
00000240: cbfe 29be d5b3 b73e 0fec 3ebb 62b1 933e
00000250: e4bf 9ebe c3ff 663e f143 8a3e 473f 45be
00000260: 51d4 193e ffa1 dcbe 81fa 6c3e 6a27 02be
00000270: 01eb 943e 1252 9fbe 8228 813b 8481 183e
00000280: bf44 01be 3326 163e b2f7 d7bd be22 15be
00000290: 6717 f13d 93c5 c9be 7ab2 903e a067 9e3e
000002a0: 607b 153e 4ac6 92be 88dd 12be 3fd3 0cbe
000002b0: 68b5 9f3e cd65 623e e66f 63be ea27 5f3e
000002c0: 554f 8f3e cb56 55be d431 563e 0a37 7cbe
000002d0: 3e85 cbbd 992b 783e f3ce 16be 5f48 01be
000002e0: 3e11 bb3e 1865 1c3e da1e aabe a356 193e
000002f0: 189e 38be 697b 8f3e f5d5 293e 715b a93e
00000300: a2cb 4c3e c227 bfbd 6000 18be 766e 1abe
00000310: d06b 273d 2f67 1fbd bc01 35bd ac85 22bd
00000320: 0f59 95ba f03b fdbd d5e7 7b3e f05b 2a3e
00000330: 3081 7d3d 28fd e63e 67bb 8d3e be7d 2cbe
00000340: e702 093d b0ab 563e 3c6f f2bd 755f 573e
00000350: 1bf8 a43e aca9 023e 4e03 353e 8b67 dfbd
00000360: 837f 38be 809b 5f3f 6618 c33d 504d bcbd
00000370: ddb5 ca3e dda8 bd3e fb83 26be 7b0b b6bd
00000380: e276 0a3d 920c 3e3a 9337 27be a823 7ebd
00000390: 86fe ebbc 7d16 e93e 5ddd b53e 37b5 d23d
000003a0: fb24 913d 9453 303e 443b 2cbe 16d3 a2bd
000003b0: a829 883e 8d1f e13d c4cb 2cbc edf6 993d
000003c0: 00d0 593e 2c22 1b3e 20cf c23c 04cb c93b
000003d0: 3308 0abd aef8 c43d f5f8 cb3c 8c10 783b
000003e0: 72c9 d13e a759 edbd 8a57 063f b814 00bc
000003f0: db96 acbd d58d a03e 2f7a f73c d069 633e
0.10696147 -0.14007938 -0.06802539 -0.11766386 -0.01972594 0.019221235 -0.10876963 0.040827006
-0.014743543 -0.16885346 0.234435 0.39660704 0.19126774 0.4882633 0.17191592 -0.139063
-0.041534342 0.28347528 -0.12401877 0.2747401 0.31627548 -0.002292949 0.18058513 -0.025258273
-0.12625748 0.78527004 0.15276694 -0.17070168 0.21737675 0.18554866 0.037893787 0.023234326
-0.11722223 -0.060927983 -0.091141775 -0.031242196 -0.028479842 0.4232652 0.3803538 0.09335457
-0.042626724 0.28940505 -0.0113718975 -0.11668813 0.09287653 0.14185767 0.052447923 0.018066043
0.08994189 -0.04480679 -0.008472725 0.053100426 -0.07991449 0.1146775 0.09678979 -0.14602672
0.22791588 -0.02935709 0.24476996 0.040319864 0.056712467 0.14828458 0.052430473 0.278757
-0.08159122 -0.15950048 -0.07658511 0.042358458 -0.020636061 -0.019045051 -0.04081328 -0.045392178
0.06069364 -0.11545565 -0.2200562 -0.20517722 0.040691193 -0.18239675 -0.12158407 -0.078177154
-0.23885545 -0.20423944 -0.18050936 -0.19997615 -0.16484113 -0.033960156 -0.13603689 -0.02851528
-0.15899846 -0.27548 0.010392836 0.03501195 -0.2964927 -0.17818525 0.0468423 -0.035897907
0.06562511 -0.057978623 -0.1646507 -0.09149786 -0.098587096 -0.24450114 -0.025972188 -0.35143012
0.0013269635 -0.2985428 -0.0061451313 -0.0055236043 -0.14359821 -0.027652679 -0.12470797 -0.12339189
-0.3279019 0.009326664 -0.016680073 -0.12183743 0.109594084 -0.21902187 -0.048763756 -0.17909291
0.1262989 -0.077639565 -0.25366402 -0.1412001 -0.071041465 -0.0270837 0.033425115 -0.38044992
0.2447334 -0.1370102 0.18084991 -0.087339975 -0.21811914 -0.22077696 -0.03652332 -0.17874327
0.2061938 0.108975105 -0.33383194 0.31840497 -0.23483604 0.42725176 0.21724422 0.09855919
-0.16601102 0.35879388 -0.00291324 0.2884627 -0.31005776 0.22558503 0.2700496 -0.1926242
0.15022399 -0.43092343 0.23142435 -0.12710348 0.29085544 -0.31117302 0.0039415965 0.14893156
-0.12623881 0.1466301 -0.10545291 -0.14564034 0.11772042 -0.3940855 0.28261167 0.30938435
0.14597845 -0.28666908 -0.1434232 -0.13752459 0.3119309 0.22109146 -0.22210655 0.2179257
0.27990213 -0.2083389 0.20917445 -0.2463037 -0.09937523 0.24235381 -0.14727382 -0.12625264
0.36536592 0.15272939 -0.33226663 0.14974456 -0.18029058 0.28023842 0.16585524 0.33077577
0.19999555 -0.09333755 -0.14843893 -0.150812 0.040874302 -0.038916763 -0.044191107 -0.03967826
-0.0011394339 -0.12364948 0.24600156 0.16636634 0.06189078 0.45115018 0.2768204 -0.16844842
0.033450034 0.20963931 -0.118376225 0.21032508 0.3222054 0.12760037 0.17677042 -0.10908421
-0.18017392 0.8734665 0.09526138 -0.09194434 0.39591876 0.37042895 -0.16261284 -0.088889085
0.03380478 0.0007249798 -0.16329794 -0.062045723 -0.02880789 0.4552497 0.3552045 0.1028847
0.070871316 0.17219383 -0.16819483 -0.07950418 0.2659428 0.10992346 -0.010546628 0.075178005
0.21270752 0.15149754 0.023780406 0.0061582346 -0.033699226 0.096177444 0.024898985 0.003785166
0.40974003 -0.115893655 0.52477324 -0.00781744 -0.08427211 0.3135821 0.030209629 0.22208333

lstm.weight_hh_l0 f4 [256, 64]
00000000: aa3a 053d edc0 163e 492c c13d 82b5 4abb
00000010: 12f1 083d d62c 25bd 8732 9cbd a7e1 913c
00000020: 8a53 88bd 8fd7 87bc 8032 c4b8 ec93 8d3d
00000030: 2715 1c3d 9c4c 5cbb 4a9d c53d df1b 06be
00000040: 814f 8c3d 980a 5a3d 4d22 e1bd 4efb 58bd
00000050: fc64 173d b585 ccbd 67df a2bc 7b75 38bd
00000060: e8d4 88bc 2d9d 56bd 6365 533b 02de 2f3d
00000070: eca1 273d 6042 15be 27ea b53c 6d34 dcbd
00000080: 30be 9d3c fe36 49bd 8dcb 5e3d d8a0 cb3d
00000090: 000c 17be 1d0d a23c d26b 27bc 3b59 953d
000000a0: 17ab c23d 67e1 88bd 4e18 5abb 4210 9dbd
000000b0: 97cd bb3c 6a20 de3c ed7e fbbc aa01 1f3d
000000c0: 98d8 1f3e fe36 9abd 2228 debd a161 ab3d
000000d0: 8cc5 613a 17f6 033e 44d8 b1bd f0bf 5e3d
000000e0: e96f 4b3d f450 61bd 2119 253d 6838 efbb
000000f0: 7659 27bd 05da 5b3e 2d1a a43c 1d74 42bd
00000100: ed05 c0bd f3ac 293e e1cc 9f3c 32b4 8cbd
00000110: 3e4c a6bd 86fd 4cbe 072b 67bd 20f8 61bc
00000120: 18f9 013d 6d4a 043e dcf1 16bd 957a 05bd
00000130: 96d7 493d 4b5b bf3d 796c e9bd a7d0 ea3c
00000140: ee1f ebbc 815b cf3d 48cd 713d e630 843d
00000150: 7564 4e3d 1d3e 9abc c569 18bd 9f61 35bd
00000160: 85d2 0f3e 4a87 46bd 71b2 4b3d 1cde e4bc
00000170: c3c9 09be e8fd d93d 8739 f53d 7dcc 90bd
00000180: ad85 d83d 0079 7ebd 34f5 063e ebc6 a1bd
00000190: a20f 8fbd 4991 b53c 3bc5 83bd 8cca e13c
000001a0: 7598 6f3d 0523 013e 7bf2 18bc 9542 213b
000001b0: 8929 bf3b fba9 98bd 9bfc 65bc 6415 cf3d
000001c0: a78f abbd 3629 bebd 0d1b bfbc 3593 40be
000001d0: 11e2 f13d 4a48 40bd 4d6d 373d 33eb b1bd
000001e0: a7eb 993d 9b1d 08be 0ee2 fb3d 60b4 fc3c
000001f0: 9d24 133d 504e b4bd 083c f1bc b20c 5d3c
00000200: 5a6a a7bd 92f3 edbd c3cb 03bd d6ed a6bd
00000210: 43bb 103d 2977 0a3d 1322 80bd 60d9 1bbd
00000220: 5b3c 82bd 3a3c 583d d868 f9bd 8871 babd
00000230: 4f1e 083e c843 0c3e b30b cabd 73d4 743b
00000240: 0da7 e4bd 36fb 7d3d 4075 f33d 8557 cd3d
00000250: 2bbd a83d b7d9 9d3d 18f7 c43d 5b7b dabd
00000260: 7a7f 00bd 5a0f 2abd 3cd5 033e 63cb 3c3d
00000270: d0f6 fd3d f705 70bd 7a05 0a3d 8aec 1c3d
00000280: 5624 ae3d 4d8d 31be 8105 28bd 09d2 2a3e
00000290: 6186 e4bc ec5a cf3d 4a0d ad3d 9174 9ebd
000002a0: 4c85 10be b0aa 0dbd 9fe8 6bbc 41df 0f3d
000002b0: bf0d b3bd 7907 023e 1aa6 89bd 8c1a af3d
000002c0: a8be c03d 5190 263d ec95 253c 95db 52bd
000002d0: e1df 313e 0e94 66bd e953 3abd c968 aabd
000002e0: 9c5e ae3d 6ff8 40bb 1bde eabc 1fcf 223d
000002f0: a71f 593c 2c0e 003e 656e 6f3d 0391 82bd
00000300: 71ed 9b3d c4a4 a73c d2da 3f3d b683 db3c
00000310: fe21 bc3d 4596 d0bd 8204 e33c 0ffb 0d3e
00000320: 1d8f 423c d063 1e3e 1f55 41bd 9639 adbd
00000330: ee29 d5bd 8fc9 e1bc 11f0 ebbd 1643 1bbd
00000340: 4a48 cbbd 70aa 053e 7028 c53c 5f72 08be
00000350: ffdf a1bc 6656 01be 8391 4fbe 2e5a c03d
00000360: dfb3 50bd 33cd 143d 8bf0 49bd c85e e43d
00000370: 8c6f 0bbc 16eb 8a3d 8493 a03d d563 413d
00000380: f82b f83d d50a 11be 1900 7a3d e708 0f3d
00000390: cc6f 26bd 4c91 8c3d ee8a 49bd 52e6 f6bd
000003a0: afae d2bd 89aa a83d abf9 ca3d 3db0 753d
000003b0: 277d cbbd 234b 453d 5918 96bc c30f 1b3e
000003c0: 3b4c 183d 2bdc 153d 6d6d 303d 0306 e63d
000003d0: 03a3 9e3d 2acd 6b3c 36c8 963d fdf5 b4bd
000003e0: 2ab2 a8bd c686 3abe a2b1 cfbd 6492 2fbe
000003f0: dd96 4e3d bf35 c63b 021f 03be eeef 98bd
0.03252665 0.14722033 0.09432275 -0.003093094 0.033433028 -0.040325962 -0.07626825 0.017807795
-0.06656559 -0.016582279 -9.355415e-05 0.069129795 0.03810611 -0.0033614999 0.09649141 -0.1309657
0.06851102 0.05323276 -0.109928705 -0.052974038 0.03696154 -0.0998644 -0.019881917 -0.045033913
-0.016703084 -0.05239599 0.0032256476 0.042936333 0.040925905 -0.14576101 0.02220638 -0.10752187
0.019255728 -0.04912471 0.05439334 0.09942788 -0.14750671 0.019781644 -0.010218577 0.0729241
0.09505289 -0.06683617 -0.0033278647 -0.076691166 0.022925181 0.027115066 -0.030700171 0.038819946
0.15609968 -0.0753002 -0.108474985 0.083682306 0.00086125056 0.12886845 -0.086838275 0.054382265
0.049667273 -0.055008844 0.040307168 -0.0073004253 -0.0408568 0.21469887 0.020032013 -0.047474016
-0.0937613 0.16569881 0.019506874 -0.06870307 -0.08120011 -0.20018587 -0.05643752 -0.013792068
0.031731695 0.12919016 -0.03685175 -0.032587606 0.049277864 0.093435846 -0.11397643 0.028663946
-0.028701749 0.10124875 0.059033662 0.06454639 0.050388772 -0.018828446 -0.037210245 -0.04428255
0.1404515 -0.048468865 0.04973072 -0.027937941 -0.13455872 0.10644132 0.11973863 -0.07070253
0.10572372 -0.062127113 0.13179475 -0.07899269 -0.069854036 0.022164004 -0.06434103 0.027562402
0.058495004 0.12611015 -0.009335156 0.0024606336 0.005833809 -0.07454296 -0.014037277 0.10111502
-0.08377009 -0.09285204 -0.023328329 -0.18806155 0.11810697 -0.04694394 0.04478197 -0.08687439
0.0751565 -0.13292544 0.12298976 0.030847728 0.03592359 -0.088039994 -0.02944757 0.013491796
-0.08174582 -0.11618723 -0.032176744 -0.08150832 0.035334837 0.033805046 -0.06256499 -0.0380491
-0.06359168 0.05279181 -0.121782005 -0.091036856 0.13292812 0.13697731 -0.09865513 0.0037358075
-0.11164675 0.06200715 0.11887598 0.10026459 0.08239206 0.077075414 0.09617442 -0.106680594
-0.03137157 -0.041518547 0.12874311 0.046092402 0.124005914 -0.05859944 0.03369663 0.03831152
0.08503024 -0.17339058 -0.041020874 0.16681685 -0.027896108 0.10124764 0.084498 -0.07737077
-0.14113349 -0.03458661 -0.014398723 0.03512502 -0.08742856 0.12698163 -0.067211345 0.08549985
0.09411365 0.040664975 0.010106545 -0.05147894 0.1737056 -0.05629354 -0.04549018 -0.083207674
0.08514139 -0.0029444953 -0.028670361 0.039748307 0.013252175 0.12505406 0.05845489 -0.06375315
0.07613648 0.020464309 0.046839543 0.026796203 0.09186171 -0.10184912 0.02771211 0.13865303
0.011874941 0.15467763 -0.04720032 -0.08458249 -0.10408388 -0.027561931 -0.115203984 -0.037905775
-0.099258974 0.13053298 0.024067134 -0.13324879 -0.01976013 -0.12630615 -0.20270352 0.093922004
-0.05095279 0.036328506 -0.049301665 0.111508906 -0.008510482 0.0678312 0.078406364 0.047214348
0.121177614 -0.14164288 0.06103525 0.0349206 -0.04063396 0.06863651 -0.04920476 -0.12055649
-0.102872245 0.08235652 0.09910902 0.059982527 -0.0993598 0.04816736 -0.018322157 0.15142731
0.037182074 0.03658692 0.043073107 0.112316154 0.07745936 0.014392177 0.07362406 -0.08835981
-0.08237107 -0.18215474 -0.10141303 -0.17145687 0.050436843 0.0060488875 -0.12804797 -0.07467638

lstm.bias_ih_l0 f4 [256]
00000000: 4b25 39bd 477b 5abd 7356 7a3c cd8b d9bd
00000010: 6d86 81bd c655 983d 04f4 16be 1918 b1bd
00000020: c4db c8bd ac3a 2cbe 2d53 a93e 7e53 ec3e
00000030: cb19 a53d 0556 293f bf91 873c 9b5c c4bc
00000040: 6a9b 04be 6c8b 053f 1d15 a1bd 25e8 953e
00000050: d77c c13e f0ef 9cbc a253 c23e 253b ba3d
00000060: c7b5 ad3c 12b0 403f 7bdc 913d 4c82 34bd
00000070: c7c2 083f e540 a23e 1b10 d4bd b588 99bb
00000080: 63db cdbc 83ff 80bd 4669 3fbe fe56 a03c
00000090: 89da 4dbe cd4d 033f d4d8 bf3e dab4 ac3e
000000a0: 181d abbd 0388 bc3e 13af 0c3c eb91 11be
000000b0: f141 273e 99ac 1d3e 91c2 023e 7625 3bbc
000000c0: 5f99 ba3e a4ed 2abe c453 33be a739 6f3d
000000d0: a6b1 0cbd 0af1 7b3c 77c4 94bd fecc 8bbd
000000e0: 08d6 143e 10c6 78be d6cd 793e 47c5 42bd
000000f0: 4a75 60bd f314 a33e 43f8 11be c843 d63e
00000100: 4496 c0bc 6767 dabd b203 31be 6d3e 32be
00000110: da35 dc3b 27a0 443d 01c3 a2bd 709e 76bd
00000120: 764e d7bd 1ea6 3ebe b478 91be d21f d9be
00000130: cc5c 39be f81c bdbe 36f4 67be 98fa 0ebe
00000140: 79d3 6bbe 2be3 b7be c8b0 e6bc 8c65 bebe
00000150: 41d2 d4be 7f89 9fbc 9f29 5cbe 2352 0abe
00000160: ac50 973b e195 c6be 3474 8ebe c1ba 39be
00000170: 53b4 c0be 1f65 b5be 02cb d53b f3d9 0abe
00000180: 184c 03bd 0fbe 83be ae44 84bd 2c5d 0dbe
00000190: 62d9 03be cbb1 afbe dade 4dbe 78bb c1be
000001a0: b760 ad3d 65ce f0be 2174 a6bd dcd4 fbbb
000001b0: 860a 80be 361c e6bd e389 27be facf 09bd
000001c0: 6696 92be 1b2c 1ebe 4b96 0d3d 86b3 3a3d
000001d0: 09b7 0bbe 4bea c9be 6723 29be c267 9cbd
000001e0: 6eaa 32be 0ca4 16be 85f5 76be 86e9 2abe
000001f0: b77c 7dbd a2b3 67be 7dad b3bc d107 f3be
00000200: e098 a3bd 1166 533c 2bb1 3abd 1d7b 07bb
00000210: 517d cd3d 03c1 da3c 828e c9bc b44e 363d
00000220: 8b20 0fbd 1ade 2d3b 35b1 a03d 4c26 a9bd
00000230: c844 c53d c9d7 cebb 286f b9bd e0b6 32bc
00000240: 6391 3c3d 8750 bfbd 4d13 53bd 4c82 ccbd
00000250: a3d8 2e3d b0c3 fc3a 319c 0dbe 8b63 623d
00000260: 45fd e8bd 93d1 093e da3b edbd 632b 993d
00000270: 6bb7 693d f361 c23c b46a 74bd d7d5 febd
00000280: 524c 27bd ee8d 0cbd 9ee4 a6bd 6e4e cabd
00000290: ca85 b03c f636 f33c 9ef3 d5bd 4305 15bd
000002a0: 94c8 9abd cc1f 4fbd 232b 50bd 42de c63d
000002b0: 764b 5d3b a74b f83a eae5 3a3a 483b 79bd
000002c0: fef3 9b3c b7e9 3bbc 5960 bdbc 7650 b43d
000002d0: b3de 9b3c d6e7 c4bd 2bd2 45bc 7685 de3b
000002e0: d6c5 13bd 254e c83c 58ee 3c3c a717 183d
000002f0: 239a 8c3b 8b8b 3dbc 352e 193d 807b cebc
00000300: 5b1b c0bd 71a1 71be 34af 89bd 623d f5bd
00000310: 6350 ad3d 0df8 a63c 377d 94bd 8928 9ebd
00000320: f2c9 4cbd 8a13 28bd fb90 b53e d312 bc3e
00000330: 2fdb d3bd 4fdf 1f3f a523 e53d c98a 99bc
00000340: c1be 6bbd c1bf b03e 9e80 09bc 785d bb3e
00000350: 14ff fe3e 240e a2bd ec8d 243e bba6 07be
00000360: ac65 803d b694 5c3f 8dfc b23d 993b 9fbd
00000370: fe7f b23e 376d d13e f4bb f6ba 4ca8 e8bd
00000380: efe1 05be 5ac4 c2bd 8b4f e7bd 06c0 4fbe
00000390: 56b0 2cbe 9b2f 1f3f 0bdc 963e 6767 d43e
000003a0: dd62 dfbd 20d9 fc3e c6fc 1dbd 0a6a 58be
000003b0: 34fc 913c cc02 873c 927f 01bd cd32 9abd
000003c0: f1ac ca3e 0a8e 22be ca37 56bd d524 90bc
000003d0: 7f98 ecbb e0b1 193e 8037 29be 31ca 1ebe
000003e0: e43f d03d 004c 593a 0e57 363e c767 f0bd
000003f0: 5819 e9bc 9d4f 523e c100 b7bd 6c1f 123f
-0.04520158 -0.053340223 0.0152794 -0.10622368 -0.06324468 0.07438235 -0.14741522 -0.086471744
-0.09807542 -0.16819257 0.3307127 0.4615745 0.0806156 0.6614688 0.01654899 -0.023969939
-0.12949911 0.52165866 -0.07865355 0.29278675 0.37790558 -0.01915738 0.37954432 0.09093312
0.021204842 0.7526866 0.071221314 -0.044069573 0.53422207 0.31690136 -0.103546344 -0.004685486
-0.025129026 -0.06298735 -0.18692502 0.019572731 -0.20102896 0.5129059 0.37470114 0.3373173
-0.083551586 0.3682252 0.008586663 -0.1421582 0.16333748 0.15397872 0.12769534 -0.011422506
0.36445138 -0.16692215 -0.17512423 0.05840459 -0.034349106 0.015377292 -0.07264035 -0.068262085
0.14534771 -0.24294305 0.24394926 -0.04755142 -0.054799356 0.3185192 -0.1425486 0.41848588
-0.023509152 -0.10664254 -0.17286566 -0.17406626 0.006720287 0.048004296 -0.0794735 -0.06020969
-0.10513012 -0.18618056 -0.28412402 -0.4240709 -0.18101805 -0.36936164 -0.22651753 -0.13962781
-0.23029889 -0.35915503 -0.028160468 -0.3718685 -0.4156666 -0.019474743 -0.21500252 -0.13507895
0.004617771 -0.38786224 -0.2782303 -0.18137647 -0.37637576 -0.35428712 0.0065244446 -0.13559704
-0.03205499 -0.2573094 -0.06458412 -0.13805073 -0.12875894 -0.34315333 -0.20104542 -0.3783834
0.084657125 -0.47032467 -0.081276186 -0.007685287 -0.2500803 -0.112358496 -0.16361193 -0.033645608
-0.2863037 -0.15446512 0.03456716 0.045581363 -0.13644041 -0.39436564 -0.16517411 -0.07636978
-0.17447826 -0.14711016 -0.24117096 -0.16690645 -0.061886515 -0.22627118 -0.021933312 -0.474669
-0.07988143 0.0129027525 -0.045579117 -0.0020672746 0.10033668 0.026703363 -0.024604086 0.04450865
-0.034943145 0.0026530088 0.078462996 -0.08259258 0.096322596 -0.0063123447 -0.090544045 -0.010907859
0.04603709 -0.09341531 -0.05153208 -0.0998579 0.04268707 0.0019284394 -0.13829114 0.055270713
-0.11376432 0.13458852 -0.115836814 0.074789785 0.057059687 0.023728346 -0.059672073 -0.124431305
-0.04084427 -0.034315042 -0.08149074 -0.098782405 0.02154817 0.029689293 -0.10446857 -0.03638197
-0.075577885 -0.050567433 -0.05082239 0.09710361 0.0033766902 0.0018943445 0.0007129597 -0.06084755
0.019037243 -0.011469296 -0.023117231 0.08804409 0.01902709 -0.09614532 -0.012074034 0.006790812
-0.036077343 0.024451325 0.011531435 0.03713193 0.0042908355 -0.011568914 0.037397582 -0.025205374
-0.09380218 -0.23596741 -0.067228705 -0.119745985 0.08462598 0.020381952 -0.07250445 -0.07722575
-0.049997278 -0.04103426 0.35462174 0.36733112 -0.1034454 0.62450117 0.11188439 -0.018742936
-0.057554964 0.34521297 -0.008392481 0.36594748 0.49803984 -0.07912853 0.16069764 -0.13247196
0.06269392 0.86164415 0.087395765 -0.07775039 0.34863275 0.40903637 -0.0018824325 -0.11360225
-0.13074468 -0.09510107 -0.112944685 -0.20288095 -0.16864142 0.62182015 0.29464754 0.4148514
-0.109075285 0.49384403 -0.03857114 -0.211342 0.017820455 0.016480826 -0.0316158 -0.07529221
0.3958507 -0.15874496 -0.0522993 -0.017595688 -0.0072203274 0.1500926 -0.16525078 -0.15506817
0.10168436 0.0008289218 0.17806646 -0.11738544 -0.028454468 0.20538183 -0.08935691 0.57079196

lstm.bias_hh_l0 f4 [256]
00000000: 7a39 05be 2f0c e1bd d52e 9c3c 4688 9abd
00000010: 411a 21bd 1674 d1bc 7e5f 1cbd f6f4 3fbe
00000020: aa6e f7bd 1424 34be 832e b03e e622 893e
00000030: fda1 2a3b 0d4a 273f e7c2 b03d 2a76 07be
00000040: 51ad 8fbd 6b32 c53e afa6 5ebd 3b02 ce3e
00000050: 8d31 c03e ea22 8d3d e1b0 273e b0bb 353d
00000060: 4448 f0bd ba59 4b3f b445 903d 86eb 0ebe
00000070: 4fce db3e 3d86 a33e 6c8b 4abd 0089 2cbc
00000080: 4cb0 60be 6732 41be b847 3dbe b98e 3dbe
00000090: b94f fabd 65dd 213f d5e5 8b3e 00be aa3e
000000a0: 3cd5 8bbd 1b6b cd3e 93f7 d53c 4de5 1dbe
000000b0: 7930 87bc e403 623d e4ed 5a3d f6b9 cc3d
000000c0: 217b eb3e 030e 143d 6c23 21be 1b47 b3bd
000000d0: 0612 83bb c6b5 853d b83d 1ebe 6fa2 6fbe
000000e0: 91d4 953e aad6 09be 4c37 5f3e 987f 53be
000000f0: 9ef8 2939 f59e 6c3e 4179 b1bd 4c48 033f
00000100: 0bff 0abd 252a 8abe e486 39be eb22 d8bd
00000110: 2770 753d 6c81 19be 1f96 02bd ad65 58be
00000120: aeb1 f9bd be07 76be ce54 adbe 76eb d6be
00000130: b45d 16be 3c72 aebe 5bd7 d9bd 1cee c9bd
00000140: 1322 89be 7ddf a9be baec 4ebe a98c 50be
00000150: d30c dfbe 0b7b 26be dea3 99be af27 a1bd
00000160: 0dba 78bd 1902 b1be 6118 7abe b1ec 4abe
00000170: b0d2 87be 97b3 32be 4b3d c2bd e8fd 303d
00000180: f789 2ebd 7463 11be 2d69 3cbb 3dfb d0bd
00000190: c542 86bd 39ac f0be 48f5 c5be 5ffd 9ebe
000001a0: afff 1cbd dd05 c4be 7d2c 8abd 985a 29be
000001b0: 9bef 2bbe e932 32be fc12 16be 772d 1c3d
000001c0: bc05 ffbe 2795 10bc df0a 9cbc b241 f5bb
000001d0: f612 0bbd 0f93 b7be 6ad0 edbc fe51 87bd
000001e0: 7849 16be 4951 b1bc 04f3 a3be 9099 0ebd
000001f0: f736 5d3a ce1f 64be 77b4 a6bd a3f9 a5be
00000200: 2707 e6bb ed3c beba 54a3 bf3b 9a1b 28ba
00000210: 88ad 213c 596a c73d 9881 6d3d d648 1639
00000220: 2cd2 a33c 3111 41bd 6e6c 463d 8507 1cbd
00000230: d071 09bd 362e 21be c51c c93b 3f8e dcbb
00000240: ed18 303d 917d eabc 0524 3cbd 6a2b c1bc
00000250: 8b25 9b3d d93d 8fbd 45da 283d e1f6 823c
00000260: 9be5 023d df6a 9f3c 984b 193d 5cd9 20bd
00000270: 32a2 27be fedf c93d e184 33bd 2835 4d3d
00000280: 24c1 993d 68fd 00bc 88e1 fb3d 25ff 0e3e
00000290: 1e62 74bd 9c87 d53d 63eb acbc 53fb babd
000002a0: feb7 33bb 91d5 253e 952e 893d 2128 32bd
000002b0: df34 d5bd f338 d6bd ce97 c73d 6ded d1bd
000002c0: 73ee 07be 666f a63d 2c8c dfbc 2a27 c63c
000002d0: 1ecd b0bc eaf6 943c 4332 8a3d 70f8 913d
000002e0: 6cce a8bd 17d3 36bd bff1 f03d 7e40 9fbd
000002f0: f961 663d 6f8c bcbd 739c c4bd 6368 fbbd
00000300: 2119 4d3d 16bc 0abe 4a01 45bc f1ee 3abe
00000310: b765 2fbd f2b2 0ebe 7548 cbbd 4db1 30bd
00000320: 213f ecbd 9ee0 5fbd fa4e 5f3e 3b12 9f3e
00000330: d5d3 a0bd b1da 173f 4586 243e 48b6 eabd
00000340: 3986 153d 7332 f43e 89f6 4dbe 69dd 7c3e
00000350: eef7 bf3e 6cad dbbd 57ca 773e 6676 923d
00000360: b295 a53c ec8b 413f 041c 963d 5d2f e1bd
00000370: bc62 ec3e 4784 da3e ceb8 a7bd 3099 f2bd
00000380: e147 0cbe 3be4 33be e859 e5bc f992 c5bd
00000390: 4492 0fbe 8df7 233f 5462 3b3e 75e5 ba3e
000003a0: eb31 e2bc ae50 b73e 32d0 36be 8029 3ebd
000003b0: 4139 8d3d d94d 5b3c 7f7f b93d 1159 aa3d
000003c0: fb37 9b3e 88e8 56bc c755 afbd 651d d4bc
000003d0: dcea ba3c 5c40 163e 462f d8bd 758d 09bd
000003e0: c8eb ff3d fe95 3cbe 48e8 8d3e 5372 12be
000003f0: 9af8 03be 475e 933e 4fc2 9dbd de6c 033f
-0.13010207 -0.10988652 0.0190653 -0.07545523 -0.03933168 -0.02556805 -0.038177006 -0.18745789
-0.12081654 -0.17591888 0.34410486 0.26784438 0.0026036494 0.6534737 0.08630925 -0.1322867
-0.07015479 0.38515028 -0.05435818 0.40236077 0.37537804 0.06891425 0.16376068 0.044368446
-0.117325336 0.79433787 0.07044545 -0.13957033 0.42930838 0.31938353 -0.04944937 -0.01053071
-0.21942252 -0.18866883 -0.1848439 -0.18511476 -0.12222237 0.63228446 0.27323785 0.33348083
-0.068277806 0.40120777 0.02611903 -0.15419503 -0.016502606 0.05517949 0.053449526 0.09996407
0.45992377 0.036146175 -0.15736169 -0.08753797 -0.0039999513 0.06528811 -0.15453231 -0.23401807
0.29263738 -0.13460794 0.21798438 -0.20654142 0.00016209713 0.23107512 -0.086657055 0.5128219
-0.033934634 -0.2698528 -0.18117863 -0.10553535 0.05992141 -0.14990777 -0.031881448 -0.21132536
-0.12192093 -0.24026391 -0.33853763 -0.41976517 -0.14684182 -0.3407153 -0.10636779 -0.09859869
-0.2678381 -0.3317832 -0.20207492 -0.20366158 -0.43564472 -0.16257875 -0.30007833 -0.07868897
-0.060724307 -0.34571913 -0.24423362 -0.19816853 -0.2652793 -0.1745132 -0.09484347 0.043210894
-0.042612042 -0.14198095 -0.0028749213 -0.1020417 -0.06555704 -0.47006395 -0.38663697 -0.31052682
-0.038329776 -0.38285723 -0.06746767 -0.16538465 -0.16790621 -0.17402233 -0.1465568 0.038129296
-0.49809062 -0.008824623 -0.019048152 -0.007484638 -0.03395363 -0.35854384 -0.029030044 -0.06607436
-0.14676464 -0.021645205 -0.32021344 -0.034814417 0.00084386714 -0.22277758 -0.0813989 -0.3241702
-0.0070198956 -0.0014514007 0.0058483277 -0.00064128044 0.009868033 0.09737081 0.05798492 0.00014332248
0.019997679 -0.047135536 0.04844325 -0.03809311 -0.033555806 -0.15740284 0.006137463 -0.0067308242
0.04299252 -0.028624328 -0.04593279 -0.023580272 0.0757552 -0.069942184 0.041223783 0.015986862
0.03195725 0.01946014 0.037425607 -0.03926979 -0.16370466 0.09857176 -0.043827895 0.050099522
0.07507542 -0.007872917 0.12298876 0.13964517 -0.059663884 0.10426256 -0.021108335 -0.091299675
-0.00274229 0.1619475 0.06698338 -0.0434953 -0.10410475 -0.10460081 0.09745751 -0.102503635
-0.13274555 0.08126716 -0.027288519 0.024188597 -0.021582182 0.018184144 0.06747868 0.07127464
-0.08242497 -0.044634905 0.117648594 -0.07775973 0.056245778 -0.09206473 -0.09600153 -0.122757696
0.050072793 -0.13548312 -0.012024233 -0.18255211 -0.042821612 -0.1393545 -0.099259295 -0.043137837
-0.115354784 -0.05465757 0.21807471 0.31068596 -0.07852904 0.5931807 0.16066845 -0.11460549
0.036504958 0.4769474 -0.20113577 0.24693836 0.37493843 -0.10726437 0.2419828 0.07151489
0.020212982 0.7560413 0.07329562 -0.10995362 0.46169078 0.42679045 -0.081895456 -0.118456244
-0.13699295 -0.17567532 -0.027996972 -0.096471734 -0.1402064 0.6404961 0.18299228 0.36503187
-0.027611693 0.3580374 -0.17852858 -0.046426296 0.06895686 0.01338526 0.09057521 0.08317769
0.30316147 -0.013116963 -0.085612826 -0.025892923 0.022817068 0.14672989 -0.10555892 -0.03358217
0.124961436 -0.18416592 0.2771628 -0.14301424 -0.12887803 0.28782865 -0.07703077 0.51337993

lstm.weight_ih_l1 f4 [256, 64]
00000000: 96d7 e33d 76e7 cfbd 1445 37bd 19cc c9bd
00000010: be5f 86bd bc4e 3abe 01f8 903d aa60 203d
00000020: e0fa f4bd 50ef f13d ccf4 633b 797f 003e
00000030: a749 ae3d a2d7 803d 51b2 e6bd 432d ffbd
00000040: 48e1 42bd aa5f 10bd 069c 133e 9888 cd3d
00000050: 08e0 d63d 4e12 fe3d c724 bebc 8d54 393d
00000060: 2a01 523d a5ab 4d3e 70ac 483d f26a 023d
00000070: 5e63 b23c 52cf 9b3d accf e73c 75da da3d
00000080: 9694 613b 8883 923d 608a e73d 3ec4 60bd
00000090: 102c 2f3d 90c0 7fbd ab6a 0d3b 40c9 863d
000000a0: f888 393c 56d9 cebd ed9e c4bd 0f7c bc3d
000000b0: de8f 853d 80d3 e63d 295b e6bd 00d1 333d
000000c0: 1676 bdbd e151 c23d b99c eabd 6adf 05bd
000000d0: a09e 81bd 50fd 633d d50d 51bd 5643 283a
000000e0: 3415 c8bd 733c eabd a85b 7cbd 526f b7bd
000000f0: c770 973c 1143 273d 4879 afbb f84f 0dbe
00000100: 2358 11be 6a72 41bd 1819 3cbe 8477 c53d
00000110: b6c0 e03d f855 d73e 4524 c7bd 9d5b a3bc
00000120: 1f86 fabd 993d 85be ada2 433e 7208 3bbe
00000130: ef56 053e e8e1 29be eb3e a3bd 7033 2bbe
00000140: faaa a13d f3d5 e83c 3034 2f3c f2ea 05bd
00000150: 5bd2 4d3d 7e72 17be 648e a5bd f56a 893e
00000160: d515 dcbe 3490 04be 6565 f8bd 8e65 023e
00000170: 5ac1 8bbe 8dad 103d b45a 3a3d b1b6 53be
00000180: d831 823e 3d50 583d 17c1 9d3e be6c 993d
00000190: 68b9 c4bd aa0c 1a3d 6f10 0dbe c00a ddbe
000001a0: 80eb 80be 88ce b73e 2a53 8b3d 8c1c 643d
000001b0: f431 e9bd d63f 9ebe 44e7 2e3e 3acc 7cbe
000001c0: eb7d 56be b3ba c23d 61e9 88be 6f79 8a3e
000001d0: 77a5 243e cf6c e1bd 038d 003e fd82 b43d
000001e0: 67d5 14be b2fa 36be 7947 b63c cdc9 81be
000001f0: fd90 2c3e 2329 21be 030d 44be 2c13 88be
00000200: f809 9abd 92ba 63be 0dce d6bc 9972 57be
00000210: e2d5 bc3e 7b1c 463f c5e6 3e3e 7c9e 90bd
00000220: 678c 843d a700 0dbf 3f4a f53d f981 65be
00000230: 567f 4b3e 35df e1be a0fe 54be b6e1 113e
00000240: cf54 df3e 216b d5bd fe08 54be 7320 bcbe
00000250: 0a0e e73e f4d5 9cbc 278b b8be be08 3c3f
00000260: f4dc 6abf 4d96 803e 4ed1 843d 2bf7 00be
00000270: 2089 a4be ffe7 f13e 0860 23be e7b8 49be
00000280: bc16 873e 2fc4 633e d364 023e 6f7c 933e
00000290: ad4b 223e b14d a73e d827 e7bd acc7 6cbf
000002a0: 4799 77be cea7 4a3f 901a 08be 347b 423d
000002b0: 6a49 3abd b82f bcbe eb71 ce3e 9ae7 4fbf
000002c0: 23cb 1dbf 2950 c03d 8a0a 45bd 6e9b 3a3f
000002d0: 0ba7 c63d 8ffe e7bc 5812 0bbe c9ce 203f
000002e0: b411 d2bc 41b6 9c3e 4105 753e 8b3e c73d
000002f0: 3903 1abd dfca 18bf 951b 903d c2f0 66bf
00000300: 5faa 80bc f4b0 16be 4c50 1c3d 12eb b33d
00000310: 939b 59be e60c 68be 9bb9 d1bb b03a 25be
00000320: d29c 533d ba63 8a3d 48b3 943d 8193 76bd
00000330: 295d a8bc f4c2 1cbe 485e 01bd 75a8 813d
00000340: 9971 e8bd 9292 c03d c6a7 fd3d cf5d af3d
00000350: 52df 983d a74d 073d fc4e 02be acd3 efbd
00000360: f4b6 5e3e f55f 76bc 1cb5 6dbd 8c58 aabc
00000370: 5302 1f3d 5b45 ae3d 31a9 55bd bc09 9e3d
00000380: da53 0fbe e51b 1ebd a962 f6bd 76d6 9dbd
00000390: fa36 113e 2c33 16bd 1392 4d3d 7108 5e3e
000003a0: 2864 ff3d 6b1c e7bd 3045 06be 96e1 3ebd
000003b0: a40e 4cbd c305 a03d 1ada 05be 9cfe a83d
000003c0: 30f7 1abd 0809 d3bd 74f2 c33d 98ce 80be
000003d0: c820 dc3d 231a 0c3e f4f8 f4bd d586 02be
000003e0: 0965 be3d 48cb 92bd c769 003e 4424 f73d
000003f0: 4c7f eb3b e527 163d 0109 c83d 085c 16bc
0.11125104 -0.101515695 -0.044743612 -0.09853382 -0.0656123 -0.18194097 0.07078553 0.039154686
-0.11961913 0.11813223 0.0034783361 0.12548627 0.08510142 0.06291129 -0.1126448 -0.12459805
-0.047578126 -0.035247482 0.14414987 0.10035819 0.10491949 0.12405835 -0.023210896 0.04524665
0.05127064 0.20085008 0.048992574 0.031840272 0.021775898 0.076079026 0.028297268 0.106861986
0.003442084 0.07153994 0.1130569 -0.05487465 0.04276663 -0.0624395 0.0021578472 0.06581354
0.01132416 -0.10100047 -0.09600625 0.0920335 0.06521581 0.11270809 -0.11247856 0.04390049
-0.09251039 0.094882734 -0.11455674 -0.032683767 -0.063290834 0.0556615 -0.051038582 0.0006418725
-0.09769669 -0.11437311 -0.061610848 -0.089567795 0.018486394 0.040835444 -0.005355034 -0.13800037
-0.14193778 -0.047228254 -0.18368948 0.096419364 0.10974257 0.42057776 -0.09723715 -0.019941146
-0.12232613 -0.26023558 0.19105025 -0.1826494 0.13021444 -0.16590083 -0.07970985 -0.1671884
0.07893939 0.028422331 0.010693595 -0.032694764 0.05024944 -0.14789769 -0.080837995 0.26839414
-0.42985407 -0.12945634 -0.121287145 0.12734053 -0.27295953 0.03532176 0.045496657 -0.2067516
0.25428653 0.052810896 0.30811378 0.07491444 -0.09605676 0.037609734 -0.137758 -0.43172264
-0.25179672 0.35899758 0.06802972 0.055691287 -0.11386481 -0.30908078 0.17080408 -0.24687281
-0.20946471 0.09508266 -0.26740554 0.2704577 0.16078745 -0.11007082 0.12553792 0.088140465
-0.14534532 -0.1786907 0.022250878 -0.25349274 0.16852184 -0.15738349 -0.19145589 -0.26577127
-0.07521433 -0.2223914 -0.0262213 -0.2103981 0.3688193 0.7738721 0.18642719 -0.070614785
0.06472092 -0.5507912 0.11977052 -0.22412862 0.19872794 -0.44115606 -0.20800257 0.14246258
0.4361939 -0.10420824 -0.20706555 -0.36743507 0.45127898 -0.01914499 -0.36043665 0.7345084
-0.917434 0.2511467 0.06485234 -0.12594287 -0.32135868 0.4724731 -0.15954602 -0.19699441
0.26384532 0.22242807 0.12733774 0.28805873 0.1584918 0.3267646 -0.112868965 -0.92492175
-0.24179564 0.791623 -0.13291383 0.047480777 -0.04548017 -0.36755157 0.40321288 -0.8121277
-0.6163809 0.09390289 -0.048105754 0.72893417 0.0969983 -0.028319625 -0.13581216 0.6281553
-0.025643207 0.306078 0.23927785 0.09728726 -0.03760073 -0.59684557 0.07036511 -0.9021112
-0.01570624 -0.1471594 0.038162515 0.087850705 -0.21250753 -0.2266117 -0.0064002997 -0.16135669
0.051663227 0.067573026 0.07260758 -0.060199264 -0.020552235 -0.15308744 -0.031584054 0.06330959
-0.11349792 0.09402956 0.12385516 0.085628144 0.0746447 0.03303304 -0.12725443 -0.11710295
0.21749479 -0.015037526 -0.058034047 -0.020794176 0.038820576 0.08509322 -0.052163307 0.077167004
-0.1399683 -0.03860082 -0.12030537 -0.07706921 0.14181128 -0.036669895 0.050188135 0.21682908
0.12470275 -0.11284717 -0.1311233 -0.046601854 -0.04981865 0.07813599 -0.1307148 0.08251688
-0.037833393 -0.10304457 0.09567729 -0.2515762 0.1074844 0.13681845 -0.119615465 -0.12746747
0.09296615 -0.07167679 0.12540351 0.12067464 0.007186806 0.03665914 0.09767342 -0.009177215

lstm.weight_hh_l1 f4 [256, 64]
00000000: 1756 2d3d 9de4 f3bd 95fb 8b3e fa0a 26bd
00000010: 79cd af3d 3274 1a3e 4b54 363e 5338 c9bd
00000020: c47f b53c d6e5 dcbc ae62 be3d a636 ee3c
00000030: 4ff4 6b3d 0f25 3b3e c886 21ba 6e93 d4bd
00000040: 4400 99bd 6800 1abc 77ff 0a3d 5595 6abe
00000050: 9105 1fbb 93d6 6abe 8a68 cfbc 2fdb b0bc
00000060: 62d8 983c 5b53 103e 3262 02bd a84d eabd
00000070: 8726 093e 768a 8dbd 9299 15bd 5788 afbd
00000080: 6451 f1bd d554 ddbd de7f d1bd aae1 72bc
00000090: 37cd 9e3d 1ef1 1ebe a8db 723d bb72 31be
000000a0: 030a 593c 79be 7bbd 97b6 abbc 068d f2bd
000000b0: bf01 1d3e 4343 b33b db27 0ebd 0ca8 803d
000000c0: f30a 03bc fabd 1c3b 9022 9ebd ef0b 093d
000000d0: 45e3 033e d8b2 14be 13a7 33bd 6df2 d13c
000000e0: 555f 35bd 21cd febc af52 fcbd d1a1 8fbd
000000f0: bf70 703b 4a84 00be cde7 803c d6b2 49bd
00000100: e05c 28be dce1 6cbd a9bd 943e d73c 4bbe
00000110: c2f4 2bbe 88c7 7a3d 50ef a63c d893 d9bd
00000120: a736 3a3d cba1 27be 1a1f 193e 0104 303d
00000130: 7bfa 44be 3220 563e b346 10be 3292 f5bd
00000140: 8b78 a4bd 0162 573e 4811 10bd 372c 33bf
00000150: 8c1f e2bc 62f4 94be bc6d 31bd 2b81 053e
00000160: 2c45 15bc 4dba de3d 27b8 f4bd 0d7e 5bbc
00000170: a4c9 503d 14de 393e ea90 93be 47bc 243b
00000180: dc73 1ebe e83e b63d 7d23 fdbb 299e efbd
00000190: 6f6a 35be 3acf 993d c105 d03b dbc2 f8be
000001a0: 1175 233e f3c7 1fbe 8f87 01be a6bc fcbd
000001b0: 4cd6 313d 6a86 32bd e1fa 24bd 2f97 febc
000001c0: 44c3 b73d 1008 ffbd 29c1 8dbe cf1a 54bf
000001d0: 9aca 003d c1f9 d3bd a274 42be 5e41 bdbd
000001e0: 19a7 333d 7d23 233c 6fe6 27be 06f5 19be
000001f0: 0bda 693e 41e4 9fbd 870e 233a f216 93be
00000200: cd25 433e a4fa ec3d 5bac 92bd b411 323e
00000210: add7 e4bd ee18 f0ba cc90 d0bd 3a78 443c
00000220: 1364 203e ff6d 8c3e f0a7 3ebe 5e8d 07bf
00000230: e8f3 0fbc 6a61 90be 9e30 003e c247 aebe
00000240: b14a 653e 6bf1 913f a42b 87be bddb 7ebf
00000250: bd0f eebd c283 34bf 0517 e2bd 8c1a 10be
00000260: ca3f 983e 785e 51be 4a0c 703e 989e c63d
00000270: c938 03be 5f61 c03e 9ef6 17bf 8fb1 aebd
00000280: 17a2 edbe 77f1 82be 0e7c 833e c0a8 9cbe
00000290: 003f 31bf 3945 dc3d 8610 7cbe e053 573d
000002a0: 1415 603d e906 b23d 2be4 713e cee3 89bd
000002b0: f158 25be 4785 bd3d dd5e d4be 6897 ce3d
000002c0: 0441 583d f0de 3ebf 44ce 7abf 289c b9bf
000002d0: 2131 7dbe c481 cbbc b092 203e b70c 1d3e
000002e0: 46a4 6e3d cc1a c2bb e984 93bf 21d3 dbbd
000002f0: f320 ed3e c0dc 853d c30f 813d aabc 52bf
00000300: 5c00 10bc c881 98bd 170e 673e 659f d9bb
00000310: 5931 2e3d 348d f13c c93b 92bd 069f 20be
00000320: b537 97bd 0330 b7bb 9cb9 a03d 1512 863d
00000330: 951f 49bd f0ff 62bd 4a91 cebb 66b4 c9bd
00000340: 4115 6b3b 8b0f e7bd 0a94 893c 7f18 fabd
00000350: 6ee3 8bbd 11fb 5fbe dced a6bd eb84 79bd
00000360: b6fd 9e3d 6bef 393d 162e 37bc e1fa d13d
00000370: 132d 22bd 9717 ea3d f26b cebd b32a ce3d
00000380: 49b7 473d 24ca 9fbb 020e f0bd 9b70 2a3e
00000390: e01a 5f3d b5c1 ae3d 25bd d93d 359a 26bc
000003a0: 3e6b 083c 6866 88bc 18fb f73c 44b8 d83c
000003b0: e3c5 8abd 24da dabd 752c 113e 8eab 83bd
000003c0: 181c bd3d e44e 363d 2124 fcbd ad49 fb3c
000003d0: 22f6 2d3d cc93 3d3b 3e42 f6bc 89d7 9bbd
000003e0: 6797 df3d 8f7d b83d 2947 bfbd deca e63b
000003f0: 2e32 34be 1cf9 40bd c03e 35be c30f 9f3d
0.04231843 -0.11908839 0.2734038 -0.04053781 0.08584113 0.15083387 0.17805593 -0.09825196
0.02215565 -0.026965063 0.092961654 0.029078793 0.057606038 0.18275855 -0.00061617466 -0.103796825
-0.07470754 -0.009399511 0.033935037 -0.22908528 -0.0024264792 -0.22933416 -0.025318403 -0.02158889
0.018657867 0.14094298 -0.031831928 -0.11440593 0.13393603 -0.06911175 -0.03652341 -0.08570927
-0.11783102 -0.10807196 -0.10229467 -0.01482431 0.077539854 -0.15521666 0.05929151 -0.17328922
0.013247016 -0.061460946 -0.020961089 -0.11843304 0.15332697 0.0054706647 -0.034705978 0.062820524
-0.007998216 0.0023916946 -0.07721436 0.033458646 0.12879665 -0.14521348 -0.043860506 0.025628293
-0.04428037 -0.031103672 -0.12320458 -0.07013286 0.0036688296 -0.12550464 0.015735531 -0.049242817
-0.16441679 -0.057832584 0.2905095 -0.19847427 -0.16792586 0.061225444 0.020377785 -0.10623902
0.045462277 -0.16370313 0.1495327 0.04297257 -0.19236176 0.20910719 -0.1408947 -0.11990775
-0.08030804 0.2103348 -0.03517273 -0.6998934 -0.027602933 -0.290927 -0.04331754 0.13037555
-0.00911073 0.10875378 -0.11949187 -0.013396752 0.05097355 0.18151122 -0.28821498 0.0025136636
-0.15473884 0.08898717 -0.007725178 -0.117000885 -0.17716382 0.075102285 0.006348342 -0.48586163
0.15962626 -0.15603618 -0.12649368 -0.12340669 0.04341726 -0.04358522 -0.04027832 -0.03107795
0.08972791 -0.1245271 -0.27686432 -0.82853407 0.031443216 -0.10350371 -0.18989804 -0.092409834
0.04386053 0.009957192 -0.16396497 -0.15034875 0.22837083 -0.07807208 0.0006220121 -0.28728443
0.19057389 0.115712434 -0.071617804 0.17389566 -0.111739494 -0.0018317977 -0.10183868 0.011991555
0.15663175 0.2742767 -0.1861875 -0.52950084 -0.008786179 -0.2819932 0.12518546 -0.34039122
0.22391774 1.14018 -0.26400483 -0.99554044 -0.116240956 -0.70513546 -0.11039547 -0.14072627
0.29736167 -0.20446193 0.23442188 0.09698218 -0.1281463 0.37574288 -0.5936068 -0.0852996
-0.46412727 -0.25574848 0.25680584 -0.30597496 -0.69236755 0.10755391 -0.24615678 0.052570224
0.0547076 0.08692724 0.23622195 -0.067329034 -0.1614721 0.09253936 -0.41478625 0.10087472
0.05279638 -0.74558926 -0.97970986 -1.450078 -0.24725772 -0.02484215 0.15680957 0.15336882
0.058262132 -0.0059236046 -1.1524936 -0.10733629 0.463142 0.06536245 0.063018344 -0.8231913
-0.008789148 -0.07446629 0.22563969 -0.0066413158 0.04252753 0.029486276 -0.07140309 -0.15685663
-0.07383672 -0.0055904402 0.07847902 0.065464176 -0.049102385 -0.055419862 -0.006303941 -0.098488614
0.0035870823 -0.112822615 0.016794223 -0.122117035 -0.06830488 -0.21873118 -0.08150837 -0.060917776
0.07763235 0.045394342 -0.011180421 0.102529295 -0.039593767 0.11430281 -0.10079183 0.10066738
0.04875878 -0.004876392 -0.11721422 0.16644518 0.05446899 0.085330404 0.106317796 -0.010168602
0.00832635 -0.016650394 0.030271098 0.026455052 -0.06776025 -0.10686138 0.14177115 -0.06429206
0.09233874 0.04450883 -0.123115785 0.03067478 0.04247106 0.0028927205 -0.030060884 -0.076094694
0.109175496 0.090083234 -0.093397446 0.0070432266 -0.17597267 -0.04711257 -0.17699718 0.07766678

lstm.bias_ih_l1 f4 [256]
00000000: 7942 bcbc 9b4f 0d3e 0c47 183f 023e cabd
00000010: fb14 a2bb f42c 1c3d 91c1 143d 93e8 04be
00000020: 329a edbd f8dc dcbd eda6 91bd 4a3b 1dbe
00000030: a42b bbbd 59ac a73d 5bb3 49be 21dd a23c
00000040: 98ea 893c c2fa e8bd 137d e1bd adc0 183d
00000050: c273 513d 86a6 1fbc 5e9e c0bd a84a 06be
00000060: 6282 25be a2e0 fc3d 5192 f1bd 965d a2be
00000070: 6254 9b3d 73e3 8fbe 6ae4 28be c836 f6bd
00000080: 8411 37be 0a88 07be cba4 503d 3cdd 03be
00000090: e6f8 35be 9582 fabc 9ce5 703d 5472 ce3e
000000a0: 80a6 39be 1ec0 c0bd 50c5 1abd f5a8 d5bd
000000b0: fe78 83bc ab9e 8abe 273a 12be 2cb3 fcbc
000000c0: c552 2b3d 2eb4 163c 93c3 673d d663 f83e
000000d0: 3487 6fbd bdcb b9bd 1969 403d f31b c9bd
000000e0: 2187 04bd e333 03be 8e87 b13b 3e99 7cbc
000000f0: e4b5 1cbd c76a 32bd 97c5 22be 4747 9ebd
00000100: 19c0 b73c e148 f8bd 1e3b 8a3d 1a30 063e
00000110: a75d 2ebe b3c8 a23d 0ab8 6f3d 2b4d 953d
00000120: 182d 613d 5051 b93d 5181 1ebe 53e4 a5be
00000130: de90 50bd 3719 733d 9423 2cbe aa11 6fba
00000140: 5ccb d1bd e648 16be 94ed 47be 68f6 0cbe
00000150: bce7 dd3c df58 0d3e 5e6f 66bd 7bb8 4abc
00000160: b518 3bbd b82e 223d b5bf 2a3d a84d cdbe
00000170: 3961 053e 3536 0cbd ec99 b5bd 614d e73d
00000180: bd2a a6bd 3b3f c2bb 70e2 1a3c c6a5 b8bd
00000190: 99c2 21be 10e3 d2bc 368b f63d fec0 e73d
000001a0: 1ac1 1abe e5e3 843c 2887 a63b 13cf f6bd
000001b0: 84e9 e5bc 6c5a a7bd 06f9 7bbe 8c6a 22bd
000001c0: ba82 863d 0358 2c3d 7307 973e add4 3e3c
000001d0: 3cf0 043e b7be 323c 181d 093e d1f4 e93d
000001e0: 08bc 04be bcf6 e9bc d5fa 503d 0669 453e
000001f0: ce55 e9bd ef0a 81bb 861c cd3c deaf 83bc
00000200: d7ce dc3d b8b7 0c3c f479 47be 6dde 053e
00000210: 5360 5cbd 90eb b8bd 3851 03bd dacb 80bd
00000220: b04d c03d 3034 a03d 8bd2 00bd 324a 403d
00000230: 6c70 123e d929 adbd 51ba a1bc f597 0eb9
00000240: 9d18 0e3c c981 8bbd f111 fb3c 0c4f 60bb
00000250: 4a2d 24be 9562 19bd 11a4 a6bd 0cd1 88bd
00000260: 9e23 5abd 30eb febd cee7 ca3d cbbc 8cbc
00000270: 5ba3 abbd 5aaf 913d fd0b 54bc 4972 dc3c
00000280: 8e25 b83d fbef b23c dd64 253e 70d6 843d
00000290: 25d6 b7bd 516c a5bd aacb c8bd d881 05bd
000002a0: 8075 6e3d e5d7 573d 1e2a 013e 5515 963d
000002b0: 30b7 bebd 873d 9cbb cae1 663c fa5c 853d
000002c0: 9327 63bd a4f4 41bc 5c3b b03d 1dd6 49bd
000002d0: dd6a 1bbe aa69 04bd 8b61 1f3e 3d20 06bd
000002e0: c015 9a3d dd81 52bd 9bb8 c93c 41ca 393d
000002f0: 8577 c83c e8d3 85bd e86e 473d 573d 1e3e
00000300: 892f a5bd 924e 87bd 06aa 193f 3c4e cbbd
00000310: 74bd e5bd 6763 643d cacb a33d 9d47 42be
00000320: 9261 15bd 3470 663d 7c10 36be 5e15 58be
00000330: 22a3 eb3c b43e 593d 325e 1e3d c7fc 47be
00000340: 5cd6 143d 0eec 00bd 7c90 4abe 50c1 4c3e
00000350: e9a9 e93d b65e 543d 6c65 94bd 09f3 8cbd
00000360: c4ed 66be ed43 30bd 7985 04be 8185 94be
00000370: fb25 dd3d 7c6f 9abd 3cd5 7dbe 954e 35be
00000380: 9f49 4abc 5148 42be d900 aabd d843 0fbe
00000390: c8f4 41be 47e8 a9bd 2c15 c73d 6c36 e53e
000003a0: 8946 81be 84fa 133d 3f39 9e3d 4300 9639
000003b0: dbae 0fbe ae9f 32bd 9014 bfbc 1e03 1fbe
000003c0: 7feb cdbd 736a 033e bd29 b23e 9a4a 343e
000003d0: 6df2 273d af44 903c 2b5c 60bd 3ae6 8abd
000003e0: 00f9 82bd 704c 30be da90 acbd abc9 d9bd
000003f0: 0bc8 88bd 9c18 f2bd b98b 30be 1ebf 3bbc
-0.022980915 0.13799898 0.5948341 -0.09875108 -0.0049463487 0.03812881 0.03631741 -0.12979345
-0.11601676 -0.10784334 -0.07111917 -0.15354648 -0.09139183 0.081871696 -0.19697325 0.019880833
0.016835496 -0.11375953 -0.11010184 0.037293125 0.051135786 -0.009744292 -0.09405206 -0.13114417
-0.16163018 0.12347533 -0.11795486 -0.31712025 0.07584454 -0.28103217 -0.16493383 -0.120221674
-0.17877775 -0.13235489 0.05093841 -0.12877363 -0.17770728 -0.030579844 0.058812723 0.403216
-0.18129921 -0.094116434 -0.037785828 -0.104326166 -0.016048905 -0.2707418 -0.14279996 -0.030847155
0.041826982 0.009198232 0.056583 0.4851367 -0.05847855 -0.09072063 0.04697523 -0.09819784
-0.03235543 -0.12812762 0.0054177707 -0.015417395 -0.038259402 -0.043558862 -0.15895687 -0.07728439
0.022430466 -0.121232755 0.06749557 0.13104287 -0.17027913 0.079484366 0.058525123 0.07290109
0.054974645 0.09048712 -0.15479018 -0.3240076 -0.050919406 0.05935022 -0.16810447 -0.00091197586
-0.10243866 -0.14676246 -0.19524223 -0.13765872 0.027088039 0.13803433 -0.05625855 -0.012373085
-0.04567786 0.039595336 0.041686732 -0.4009831 0.13025369 -0.034231383 -0.08867249 0.11294056
-0.081136204 -0.005927948 0.009453401 -0.09015994 -0.1579689 -0.025743037 0.12038271 0.11316107
-0.15112725 0.01622195 0.00508203 -0.12051215 -0.02806545 -0.081715435 -0.24606714 -0.039652392
0.06567903 0.042076122 0.2949787 0.011647386 0.12982267 0.010909728 0.13390005 0.11423648
-0.12962353 -0.028560035 0.051020462 0.19278345 -0.11393319 -0.003938071 0.025038015 -0.016075071
0.10781639 0.008588724 -0.19480115 0.1307313 -0.0538028 -0.09029305 -0.032059878 -0.062888816
0.09389818 0.07822454 -0.03145079 0.04694576 0.14300698 -0.084552474 -0.019742163 -0.00013598784
0.00867286 -0.06811864 0.030648204 -0.0034226803 -0.16032901 -0.03744753 -0.08136762 -0.066804975
-0.053256623 -0.12447202 0.099074945 -0.017179867 -0.08380767 0.07113524 -0.012942311 0.026909964
0.08991538 0.021842947 0.16151758 0.06486213 -0.08976392 -0.080773 -0.09804471 -0.03259453
0.058217525 0.052696127 0.12613723 0.073282875 -0.09312284 -0.004768077 0.014091918 0.065118745
-0.055457663 -0.011838112 0.08605072 -0.04927646 -0.15177484 -0.03232733 0.15564553 -0.03274559
0.0752368 -0.05139338 0.02462416 0.0453589 0.024471054 -0.065345585 0.048689753 0.15453087
-0.08065707 -0.06606783 0.6002506 -0.099270314 -0.11217776 0.05575886 0.07997854 -0.18972631
-0.036470003 0.05625935 -0.17779726 -0.21101901 0.028764311 0.053038314 0.03866405 -0.1953002
0.03633724 -0.03147512 -0.19781679 0.19995618 0.11409361 0.051848136 -0.07245907 -0.06882293
-0.22551638 -0.04303353 -0.12941541 -0.29008105 0.1079826 -0.07540795 -0.24788374 -0.17705758
-0.012346654 -0.18972899 -0.08300943 -0.13990724 -0.18941033 -0.082962565 0.09720835 0.44768083
-0.25249127 0.036127582 0.077257626 0.00028610424 -0.14031546 -0.043609314 -0.023325235 -0.15528533
-0.10054683 0.12833576 0.3479747 0.17606583 0.04100268 0.017610876 -0.0547754 -0.067821935
-0.06395149 -0.17216659 -0.08426066 -0.10634168 -0.0667878 -0.118211 -0.172408 -0.01145914

lstm.bias_hh_l1 f4 [256]
00000000: dd1c 9ebd f8f8 9d3d 0258 fe3e 3e7e 233d
00000010: bb8a 8abd 5e15 223d 2961 6d3d c72a b6bc
00000020: 376e 113d 0862 c43d 9d94 7f3c e64f 58be
00000030: 3052 8bbd 87ba 01bd 7841 f3bd 277d f3bc
00000040: 1c9a 00be 5f42 a3bd 1fb2 69bc 381c e9bc
00000050: 34c6 32bd a9a8 6a3d cc83 babd bcd6 0bbe
00000060: 6851 55be 45a7 3abd 77bd fdbd fb3e 0ebe
00000070: 2b4d 1bbc 7b96 c6bd 2a53 5cbe fd24 22bd
00000080: eb1a 22be 955c 6ebe bbee 71bd 137a e83c
00000090: 2213 6dbe 8ca9 61be 4c33 a23d 2c20 8d3e
000000a0: 19de ffbd 7aa0 ce3d 24d8 2fbd 36dc 72bd
000000b0: 525f 28be b3a7 99bd db31 483d 752b bbbd
000000c0: 5fdc ddbd 29c0 febc e4ea 903e c219 d13e
000000d0: 2b2f 823d a9ac 563d 7c61 f83c 8d92 34bd
000000e0: 9b13 9cbd c8a3 44be 2421 f73c 1909 793d
000000f0: 5420 a6bd f634 a7bd fc9d 0abe ea56 ffbd
00000100: 4c6d 99bd e75a 28bd 6857 263c 1423 193e
00000110: e8bb bbbc f219 e2bc 9e8a ce3d 9558 c8b9
00000120: 5c55 5bbd c471 873d 932b 0bbe 15da 61be
00000130: 4201 1a3d fc88 cb3d 8e4c 32be f8ec 5bbd
00000140: f49c 0dbe eea7 1ebe ff8d 85be bd34 3e3c
00000150: 87ff aabd 8f11 403e e247 9fbd 99d0 613d
00000160: bd54 6abd de6e 77bd b53c f3bd f684 a0be
00000170: 4e5a 34bd a91e 5abc 1655 a2ba 97e7 f63c
00000180: 81d3 eabd 8f0c b3bd 11e3 dabd 635a 35be
00000190: 581b 48bd 5157 d6bd 3a65 833c 90ea ec3d
000001a0: 690b 4abe 0d35 5bbd 0754 a13d 41a5 783d
000001b0: 30ce fabc 24fd 27be 347f 47be 68f5 573d
000001c0: 970e f93c d3bb f53d fee1 8c3d 15df 4abc
000001d0: dcd7 133e e2f7 08be e6b2 e0b9 c306 dd3c
000001e0: f9b4 48be 9497 edbc 9b00 81bd f65d 723e
000001f0: 70f3 1a39 d7cd 183d a93e 203d c9c7 e1bd
00000200: b84b e8ba ad29 bcbd e835 62be a2a8 463c
00000210: b338 88bc 61da c1bc 4aeb eabd d504 933d
00000220: 0c47 db3d 50d1 163e ba00 d3bd e056 58bd
00000230: 7250 6abd ea27 5ebd bd7e 803d 95f6 a23c
00000240: 6ac1 183e 5125 f4bb 97f8 e83b 014a 00bd
00000250: 3003 5bbc 3162 283e d7bb cabd d3f7 1cbd
00000260: 1300 8b3d da99 14be 5886 ae3d 8c22 783d
00000270: 5bfa e4bd 21d4 23bd ac85 febc 66d8 99bd
00000280: 1bb3 1c3d 8888 ba3d 28e1 34bd 5054 1bbe
00000290: d183 163d c3b0 813d 88d7 31be 6807 db3c
000002a0: cbff c7bc e425 f83d 3350 083e 4cad 233d
000002b0: 6a49 20bd 3ba2 9e3d 87ab 08bd a49e db3c
000002c0: e116 503d a764 863d 1eaa c83c c53f 0ebd
000002d0: afc7 eebd 4f4a c83d 6d37 0c3e 907c 1e3e
000002e0: de63 a1bd b5e3 dbbd 6c86 8f3d 9224 32bb
000002f0: 9e13 1e3d d5ef 173e e0d1 6e3b 0a5d 85bd
00000300: 304e 84bd 796a 9cbc 3e24 0c3f 6699 3ebd
00000310: 6c5d 81bd af60 763d ef9e 673d 3f0c 82bd
00000320: 3a63 a6bd aa1b cabd eabd 22be bc02 6abe
00000330: f290 3f3b fa3b 5dbd 4c2f 47bc c570 2abe
00000340: da60 8f3d 9fc9 00be a49c 1fbe f6e6 fd3d
00000350: c530 b5bd 13a2 6dbd 615e 31be b780 99bd
00000360: a9e0 46be 9f94 683d a35c 16bd 6b84 afbe
00000370: a96e c6bd 0dbf 5cbe d697 30be 0596 31be
00000380: 1200 e7bd c6d9 80be 2dd2 00bd f3e7 043d
00000390: c8fb 2ebe 308a fabc a300 36bc 1c57 aa3e
000003a0: a8a9 54be 0fd7 bf3d b27f 5c3c 65b7 1dbe
000003b0: bb58 4bbd aeee bdbd 6882 d53d 8a57 9a3c
000003c0: 259c e7bd 4858 23bd 3f5e 823e 3caa 703e
000003d0: 2ca2 ab3d 611b 22be 4662 d83c 9169 903d
000003e0: 3c6f 64bd a0ae 99bd 83dc 0e3c 8c4c 09be
000003f0: fcf1 0fbe 8f1e 3cbd 9294 d0bd 77d1 da3d
-0.07720349 0.07713503 0.4967652 0.039915316 -0.06764742 0.03957116 0.057953987 -0.022237195
0.0355055 0.095890105 0.015599397 -0.21124229 -0.068027854 -0.031672027 -0.118777215 -0.029722763
-0.12558788 -0.07971644 -0.014263659 -0.028455839 -0.043646052 0.057289753 -0.091071695 -0.13656133
-0.20831835 -0.045569677 -0.12389653 -0.13891213 -0.0094788475 -0.096966706 -0.215161 -0.039586056
-0.15830581 -0.23277505 -0.05906556 0.028378522 -0.2315183 -0.22037333 0.0791994 0.27563608
-0.12493534 0.10089202 -0.042930737 -0.05929204 -0.16442612 -0.07502689 0.04887567 -0.09139148
-0.10833048 -0.031097488 0.28304207 0.40839964 0.06356653 0.052410755 0.030319922 -0.044085074
-0.07620927 -0.19203103 0.03016717 0.06079969 -0.08111635 -0.08164398 -0.13536829 -0.124677494
-0.0749155 -0.041102316 0.010152675 0.14954787 -0.02291675 -0.027600262 0.10085033 -0.0003821297
-0.053548202 0.06613496 -0.13590841 -0.22055848 0.037598856 0.09938237 -0.17412016 -0.053692788
-0.13829404 -0.15493748 -0.26084897 0.0116092535 -0.08349519 0.18756698 -0.077773824 0.055130575
-0.05720972 -0.060408466 -0.11876813 -0.3135144 -0.044031434 -0.013312974 -0.0012384977 0.030139728
-0.114661224 -0.0874263 -0.10687841 -0.17710261 -0.048854202 -0.10465873 0.01603948 0.11568177
-0.19730915 -0.05351739 0.07877355 0.060704473 -0.030615896 -0.16405159 -0.19482118 0.052724272
0.030402465 0.11998715 0.06879042 -0.012382288 0.14437813 -0.1337581 -0.000428579 0.026980763
-0.19600286 -0.029002942 -0.062989436 0.23668656 0.00014777272 0.03730568 0.039122257 -0.11024434
-0.0017722761 -0.091876365 -0.22090876 0.012125166 -0.016628599 -0.023663701 -0.11470659 0.07178656
0.107069105 0.14728284 -0.10302873 -0.052817225 -0.057205625 -0.054237284 0.062741734 0.01989297
0.14917532 -0.0074507375 0.0071097123 -0.031320576 -0.013367459 0.16443707 -0.09899109 -0.03832228
0.067871235 -0.14511815 0.08521718 0.06057982 -0.11180564 -0.039997224 -0.0310696 -0.07511978
0.038256746 0.091080725 -0.04416004 -0.15168881 0.036746804 0.06332543 -0.17367375 0.02673693
-0.024413964 0.12116602 0.13311844 0.03996019 -0.039132513 0.07745787 -0.033366706 0.026809044
0.05080307 0.06562167 0.02449518 -0.034728784 -0.116591804 0.09779798 0.13693018 0.15477204
-0.07880376 -0.10736791 0.07008061 -0.0027182442 0.038592927 0.14837582 0.0036441013 -0.065118864
-0.064602256 -0.019093739 0.547428 -0.04653301 -0.06316647 0.0601508 0.056548055 -0.06349992
-0.08124395 -0.09868558 -0.15892759 -0.22852606 0.0029230681 -0.054012276 -0.012157273 -0.1664458
0.07000895 -0.12576912 -0.15587097 0.12397568 -0.08847193 -0.058015894 -0.17321159 -0.074952535
-0.19421639 0.05678236 -0.03670944 -0.34280714 -0.096890755 -0.21557255 -0.17245421 -0.17342384
-0.1127931 -0.25166148 -0.03145044 0.032447767 -0.17088234 -0.030583471 -0.01110855 0.33269584
-0.20767844 0.09367191 0.013458179 -0.1540199 -0.049645167 -0.0927404 0.10425264 0.01884057
-0.11309079 -0.039879113 0.2546253 0.2350244 0.08380541 -0.15830757 0.026414048 0.07051385
-0.055770144 -0.0750401 0.008719566 -0.13408107 -0.14057153 -0.04592758 -0.101845875 0.106844835
